examples/InfoGAN-Natsu6767/NetD_Weights.pth (torch, 5159 bytes, 1 tensors)

conv.weight f4 [1, 1024, 1, 1]
0.076187804 -0.08036245 -0.05740227 -0.03673618 0.07447715 -0.08656315 -0.036694363 -0.07608818
-0.08028979 -0.0730509 0.058149606 0.06298343 0.06655817 -0.054869153 0.05425828 -0.078752235
0.06366434 -0.032847755 -0.07703233 -0.06012956 0.08191855 0.08361306 -0.065399155 -0.036316223
-0.05665218 0.065895215 0.06303562 -0.043759737 0.058705464 -0.049743973 -0.06542898 -0.06005184
0.07361457 -0.07977532 0.056145396 0.044317335 0.060396414 -0.05673992 -0.06059689 0.06461441
0.041334264 0.101200625 0.051072087 -0.038973432 0.061169352 -0.098684244 -0.06193987 0.064145856
-0.04726951 -0.09402637 -0.06927867 0.05510652 0.054090306 0.07710409 0.04372983 -0.08708826
-0.065267526 0.05609407 -0.0758956 0.04837402 0.041773185 -0.08031161 -0.0481326 0.045057487
-0.06680366 0.047375105 0.06018884 -0.0702974 -0.065507084 -0.06263526 -0.06643782 0.051223718
-0.04988704 0.06599063 -0.093919456 -0.04280214 0.07120943 0.06023121 -0.083511196 0.065462895
0.044284254 0.05835679 0.0747313 0.052708693 -0.044257846 0.049830943 0.0334179 0.055899158
-0.07719083 0.04582768 0.060642425 -0.10125183 -0.06955399 -0.05360662 0.051595453 0.04231585
0.060101952 -0.08092039 -0.06659931 0.055626336 -0.06688854 0.055462025 -0.0455981 0.044734266
-0.05408236 -0.06206795 0.028757876 0.062097788 0.060412146 0.072885156 -0.07049871 0.062209968
0.05252876 0.064414546 -0.060161274 -0.08383035 0.08463595 -0.06383717 -0.0496109 0.064108565
0.060124725 0.041960116 -0.059755277 0.085303895 -0.066896945 -0.0720534 -0.0958633 -0.042349283
0.086502984 -0.05820091 0.065605044 0.0673336 -0.08724086 0.0489817 0.06671542 0.059144903
0.040763646 0.062177412 0.05141552 0.053106707 -0.07029787 -0.07662702 -0.07150308 0.03906995
-0.053225484 0.052237205 0.071060225 -0.057331666 0.059008244 -0.048104886 -0.073730946 -0.07779678
-0.06860892 0.060924232 -0.055623103 -0.051918022 0.048984185 0.061381493 0.07882823 -0.05914937
0.07659704 -0.07626425 -0.07536747 -0.07766497 -0.07210893 -0.06677922 -0.06388995 -0.07579548
-0.083475776 -0.08762924 -0.054263618 -0.089621805 0.0634234 0.0590388 -0.07017502 0.05508208
-0.08321058 0.060449522 0.08194839 0.062463887 0.061388813 -0.067196615 -0.037170693 0.04549246
0.07982181 -0.07899792 -0.07630007 0.051339082 0.06294856 -0.0634625 0.062175203 0.053227663
-0.077046335 -0.044208806 -0.0597777 0.072058156 0.055613384 -0.041400786 -0.08421529 0.07649047
-0.06911949 -0.05992057 0.045478042 -0.040673163 0.04773172 0.054738972 -0.06534958 -0.05841608
-0.05457341 0.04819769 -0.04913755 -0.081704855 0.041928653 -0.064962134 0.049496964 0.051685352
-0.08706294 0.047237936 0.099910006 -0.07813979 0.047343414 -0.064239204 0.07192932 0.052056767
0.05907731 -0.07209493 -0.061708815 0.052240703 0.060749266 -0.10283208 0.07555065 0.063146025
-0.06770955 -0.06544 -0.04937097 0.054751776 0.05868892 -0.08068116 0.07560617 -0.08131118
-0.06673589 0.06478546 -0.0974665 -0.091690294 0.049666036 0.069764875 -0.04743239 -0.054004386
-0.061229665 0.040655993 0.053506855 -0.08111253 -0.034218 -0.07045436 0.08801954 -0.058489367
00000000: 5a08 9c3d 1195 a4bd a51e 6bbd ad78 16bd
00000010: 7a87 983d 0548 b1bd d44c 16bd 1fd4 9bbd
00000020: f96e a4bd b69b 95bd 482e 6e3d 75fd 803d
00000030: a64f 883d 7abe 60bd ee3d 5e3d da48 a1bd
00000040: 7362 823d 5e8b 06bd 20c3 9dbd 6a4a 76bd
00000050: eac4 a73d 533d ab3d feef 85bd 52c0 14bd
00000060: 1e0c 68bd 12f4 863d d218 813d 693d 33bd
00000070: 2475 703d 56c0 4bbd a1ff 85bd ebf8 75bd
00000080: 3cc3 963d 3e61 a3bd b7f8 653d 1886 353d
00000090: 3b62 773d 1e68 68bd 7234 78bd 8f54 843d
000000a0: 1e4e 293d 4642 cf3d f730 513d 9ba2 1fbd
000000b0: b78c 7a3d f71a cabd a9b4 7dbd e75e 833d
000000c0: ac9d 41bd e690 c0bd fae1 8dbd 60b7 613d
000000d0: cc8d 5d3d c0e8 9d3d 0d1e 333d 545b b2bd
000000e0: fbaa 85bd e5c2 653d 276f 9bbd d623 463d
000000f0: 5c1a 2b3d 6a7a a4bd b026 45bd 338e 383d
00000100: 5bd0 88bd 660c 423d 9388 763d 15f8 8fbd
00000110: 9428 86bd ea46 80bd 8d10 88bd f6cf 513d
00000120: 5a56 4cbd 1826 873d d858 c0bd 4c51 2fbd
00000130: 40d6 913d 00b5 763d eb07 abbd 6911 863d
00000140: 6863 353d 8807 6f3d b90c 993d 12e5 573d
00000150: b747 35bd 881b 4c3d 35e1 083d 84f6 643d
00000160: 3a16 9ebd ceb5 3b3d 3164 783d 1f5d cfbd
00000170: 5372 8ebd 9d92 5bbd c155 533d 6253 2d3d
00000180: 772d 763d 97b9 a5bd 3865 88bd 71d8 633d
00000190: dcfc 88bd 262c 633d 13c5 3abd 473b 373d
000001a0: 7785 5dbd f63a 7ebd a395 eb3c 405a 7e3d
000001b0: ba72 773d d044 953d a161 90bd e1cf 7e3d
000001c0: 6628 573d c6eb 833d ab6b 76bd 3faf abbd
000001d0: 9d55 ad3d 10bd 82bd cd34 4bbd 5a4b 833d
000001e0: 5845 763d 5fde 2b3d f3c1 74bd cfb3 ae3d
000001f0: 4401 89bd bc90 93bd fa53 c4bd 7176 2dbd
00000200: 7a28 b13d 1464 6ebd f05b 863d 33e6 893d
00000210: 56ab b2bd 09a1 483d 18a2 883d ed41 723d
00000220: c8f7 263d bead 7e3d 1599 523d 6b86 593d
00000230: 54f8 8fbd a1ee 9cbd 3570 92bd d007 203d
00000240: f702 5abd aef6 553d 0688 913d 9cd4 6abd
00000250: a1b2 713d a109 45bd 4000 97bd eb53 9fbd
00000260: d582 8cbd b08b 793d 0dd5 63bd fea7 54bd
00000270: a4a3 483d 296b 7b3d b270 a13d 9c46 72bd
00000280: e9de 9c3d 6e30 9cbd 435a 9abd d00e 9fbd
00000290: d9ad 93bd 8bc3 88bd bcd8 82bd a93a 9bbd
000002a0: 59f5 aabd f576 b3bd 8743 5ebd a38b b7bd
000002b0: 21e4 813d abd2 713d ecb7 8fbd bf9d 613d
000002c0: 4f6a aabd eb99 773d 8fd4 a73d 22da 7f3d
000002d0: d672 7b3d 619e 89bd 4c40 18bd 4d56 3a3d
000002e0: 9e79 a33d a9c9 a1bd 3643 9cbd ee48 523d
000002f0: 2deb 803d a1f8 81bd 6dab 7e3d 4005 5a3d
00000300: 78ca 9dbd 4b14 35bd 76d9 74bd 3a93 933d
00000310: dcca 633d df93 29bd 1179 acbd 09a7 9c3d
00000320: 858e 8dbd 466f 75bd 2f47 3a3d e798 26bd
00000330: 5682 433d f935 603d 00d6 85bd b345 6fbd
00000340: 5e88 5fbd f16a 453d 7544 49bd e054 a7bd
00000350: 61bd 2b3d de0a 85bd 54bd 4a3d 05b4 533d
00000360: 0e4e b2bd 917c 413d 9e9d cc3d c107 a0bd
00000370: 2beb 413d d88f 83bd ae4f 933d 7a39 553d
00000380: 0dfb 713d 82a6 93bd 62c2 7cbd 59fa 553d
00000390: 39d4 783d a099 d2bd 4dba 9a3d b452 813d
000003a0: 4eab 8abd 6805 86bd 3739 4abd 6643 603d
000003b0: cb63 703d 2a3c a5bd 68d7 9a3d 7a86 a6bd
000003c0: d4ac 88bd 3dae 843d 849c c7bd 1fc8 bbbd
000003d0: 9d6e 4b3d e3e0 8e3d 7748 42bd b433 5dbd
000003e0: f5cb 7abd e686 263d 012a 5b3d 531e a6bd
000003f0: 2c28 0cbd 604a 90bd 9743 b43d 8c92 6fbd
