examples/InfoGAN-Natsu6767/NetQ_Weights.pth (torch, 537089 bytes, 11 tensors)

conv1.weight f4 [128, 1024, 1, 1]
00000000: 0a70 363d 016c edbc fe1b 10bd f8ba a23b
00000010: 0893 ebbc 79ca b13c b910 e93a aa13 b5bc
00000020: 6f58 9e3c aa2f 12bc aa7b 943c 40b9 4cbb
00000030: 7816 c2bb cb3a ecbc 9bdd e5bc 26fb 643b
00000040: 3674 973c c6ce 2dbc 9702 e4bb 03a2 84bc
00000050: 577e cb3c de86 613b e57d 9eba 1a0e 24bc
00000060: 3b0a a23b 8dd5 16bc 408a e63a f928 823a
00000070: 8065 cabb 7725 7abc 352c 0cbd 7c0d 6d3b
00000080: ec8f f63c cf2a 893a 066b 81bc e419 83bd
00000090: 8a86 bd3c 7df4 71bc f99b b43c 8b4e aebc
000000a0: 5144 8c3c eef4 40bc 3898 d73c 0583 59bc
000000b0: c9e9 11bc 342e 13bc 9e62 26bc 6e27 bc3b
000000c0: af14 2fbc 08f8 6bbb 7c0b 4a3b 8de6 a9bc
000000d0: 3b8a 873b 76df 553c d8b2 e53c 22f9 c33c
000000e0: f8a0 793c 5adc cb3c 131c 78bc 2512 96bc
000000f0: d124 d0bc b925 34bc 5852 ea3c 38b3 103c
00000100: 2182 4abc 28fb 64bc 0861 eb3c c57b 043d
00000110: b2ab a8bc 3add 9e3b 44dc 923c ceed 253b
00000120: 2f74 edbb 5965 3ebc 8ff0 4bbc 4549 373c
00000130: dc81 6a3c b046 bf3c 244d 343c a18c b73c
00000140: fd2f 8ebc 656f 0d3d 2814 2ebd ad54 1e3b
00000150: 7822 033b 2417 263c 4b54 fdba 8c3d 833c
00000160: f2d1 9c3c b9de acbc 4dff 4d3c 7b33 f4bc
00000170: e307 82bc e855 a7bc c82d 43bc 71c2 dabb
00000180: 4635 a83c ed23 1fbc d014 d4bb cd54 cd3c
00000190: 093c 42bc ac1f 773d 8a3a 37ba 6650 56ba
000001a0: d5b6 6bbc 1c64 88bb d827 9e3c 43cb 01bd
000001b0: a6f3 3c3c 6ace 533c b1b1 233d 4812 01bd
000001c0: 4030 5cbc 5aa7 493c 926c da3b dfe0 b8ba
000001d0: e6ff 353c 4d81 6f3c 759f a83c 6a6a c9bc
000001e0: 7f32 df3c f225 013c 233d 093d 7990 84bc
000001f0: 9df0 ddbc 170f d63c af1f 033c ce99 c0b9
00000200: 8d9e 953c 5fc8 013c 8cb3 6d3c 0d36 0a3c
00000210: a68b f6bb 64b8 7abc 9a82 72bb af99 aebc
00000220: d03f 9e3a 9bbe c2bb 40b4 7bbb dc2c c33c
00000230: fcba e93c 1b48 913c 06ca 4bbb 88f5 393c
00000240: 4c5e 49bb c8a8 043c 928f 23bc f52a 903c
00000250: 71e0 2e3c 1b65 c53c f32d a03c 4566 703c
00000260: 1e8b 193c db60 7bbc 58c4 89bb 364c d33c
00000270: 4ee9 eab8 1e52 a2bc 0d52 b4bc 2d09 c03c
00000280: 75a2 5cba e13b fbba af51 0cbc d694 11bc
00000290: 0d9c 4e3d d375 143c 8519 113d 4f3a fcba
000002a0: 02fb d03c d32e 753c da81 2b3c c960 0cbd
000002b0: 6f8d cabc a824 afbb 3732 833b 390f c73c
000002c0: 14ee e73a bdf9 41bc f6bd 453c a42f 85bb
000002d0: 1978 78bc 7248 5abc a91a eabb 62f7 2cbb
000002e0: d4ba 2a3c 6137 a8bc d6d4 35bd 1521 093d
000002f0: a01b b2bb 7f18 b83b 9594 11bd 9623 58bc
00000300: 7d83 f2ba 9e91 e23a 69b3 773c 7baa 303c
00000310: 837b 513d 41bd 20bc c0fd 69bb 28b5 f13c
00000320: d89b cbbc 43a9 c8bc dddf abbc 23e4 94bc
00000330: 6f07 a73c f52e edbc ffa2 863c 0319 8f3c
00000340: 2726 3abc 5e8a fabb 3cee 90bc dd75 ae3c
00000350: aee3 2d3d 7194 ad3b c072 c4bc 3b7b a0bc
00000360: 0ffb 2cbb da43 b0bc 325d ecba 2023 d13c
00000370: 238f a33c 3ee6 5a3c d610 56bb d9f6 eebb
00000380: 7e77 0f3c 3abc 4f3c 8f56 b1bb 12da 463c
00000390: 5505 89bc 9eed 163d f23d a13c 0b03 5fbb
000003a0: 1bec 1ebd 70e9 b83c 6db1 aaba bc46 25bd
000003b0: 0780 c23b bda8 edbb 6b4e da3b 4ced 443d
000003c0: b59e 00bd d36e 0abc 7f2b 293b 92a2 52bb
000003d0: 737f 0c3d 86db 50bd 938d 5c3b 82be b2bc
000003e0: 7bc7 003c ed40 bdbb e61f 8ebb cc11 353d
000003f0: 69e0 ec3c d198 793c 5278 073c ffe8 0d3c
0.044540443 -0.028982164 -0.035182945 0.004966136 -0.028756633 0.021702992 0.0017781473 -0.022104103
0.019329278 -0.008922497 0.018125374 -0.0031238347 -0.0059230886 -0.028836628 -0.028059771 0.0034939735
0.01848803 -0.010608381 -0.0069583165 -0.016190534 0.024840517 0.0034412662 -0.0012091963 -0.010013128
0.004945067 -0.009206188 0.0017588809 0.0009930424 -0.0061766505 -0.015267721 -0.034221847 0.0036171367
0.030097924 0.0010465028 -0.015798103 -0.064014226 0.023135442 -0.014767763 0.02204703 -0.021277687
0.01712242 -0.011777146 0.0263177 -0.013275866 -0.008905836 -0.008983184 -0.010155348 0.005742005
-0.010686084 -0.0036005992 0.00308296 -0.020739818 0.0041363514 0.0130537655 0.02803938 0.023922507
0.015236132 0.024885345 -0.015143412 -0.018319199 -0.02540818 -0.010995322 0.028603718 0.008831792
-0.012360127 -0.013975896 0.028732792 0.0323446 -0.020589683 0.0048481496 0.017927296 0.0025318745
-0.007246516 -0.011620843 -0.01244749 0.011186902 0.014313187 0.023349136 0.01100472 0.022405924
-0.017356867 0.034530062 -0.04249969 0.0024159357 0.0020009559 0.010137353 -0.001932749 0.016020559
0.019143078 -0.021102296 0.0125730755 -0.029809704 -0.015872901 -0.020426705 -0.011912771 -0.0066760113
0.020533215 -0.009713155 -0.0064722076 0.02506485 -0.011855134 0.06033294 -0.0006989619 -0.00081754324
-0.014386852 -0.0041623246 0.019306108 -0.031687986 0.0115327 0.012927631 0.03996438 -0.031511575
-0.013439238 0.012307966 0.0066657746 -0.0014105103 0.011108374 0.01461823 0.020583848 -0.024586875
0.027245758 0.007882582 0.03350557 -0.016182171 -0.027092272 0.026130242 0.008003159 -0.00036735687
0.01826408 0.007921307 0.014508139 0.008435738 -0.0075239716 -0.015302751 -0.0037004114 -0.021313516
0.0012073461 -0.005943132 -0.0038406998 0.023825102 0.028531544 0.017734578 -0.0031095757 0.011350043
-0.0030726371 0.008096881 -0.00998296 0.017598609 0.010673628 0.024096062 0.01955316 0.01467282
0.009371547 -0.015342916 -0.004204314 0.025793176 -0.00011201446 -0.019814547 -0.022011781 0.023441875
-0.0008416542 -0.0019167626 -0.008564397 -0.008885583 0.05044179 0.009061295 0.035424728 -0.0019243452
0.025510315 0.014964777 0.010467971 -0.03427199 -0.024725644 -0.005344946 0.004003789 0.02429925
0.0017694854 -0.011839327 0.012069216 -0.004064517 -0.015165352 -0.013322936 -0.0071442914 -0.0026392569
0.01042052 -0.02053422 -0.04439243 0.033478815 -0.005435422 0.0056181545 -0.03554209 -0.013192078
-0.0018502321 0.0017285829 0.015118458 0.010782833 0.05114318 -0.009810747 -0.0035704225 0.029505327
-0.024854586 -0.024494773 -0.02098077 -0.01817519 0.020389287 -0.028953055 0.016435144 0.017467981
-0.011361635 -0.007645889 -0.017691724 0.021296436 0.04245346 0.0052972366 -0.023980498 -0.01959001
-0.002639476 -0.02151673 -0.0018033145 0.025529444 0.019965714 0.013360558 -0.0032663844 -0.00729261
0.0087565165 0.012679154 -0.00541193 0.012136953 -0.016726175 0.036847703 0.019682858 -0.0034028913
-0.038799386 0.02257225 -0.0013022848 -0.04035066 0.005935672 -0.007252781 0.00666218 0.048077866
-0.031401355 -0.008449274 0.002581328 -0.0032140356 0.034301233 -0.050990604 0.003365372 -0.021819357
0.00786006 -0.005775562 -0.0043372987 0.044206426 0.0289156 0.015234188 0.008268433 0.008661508

bn1.weight f4 [128]
00000000: e559 8d3f 22a7 8f3f 0a7d 913f f2be 913f
00000010: 511c 933f 3785 8e3f ff5e 8e3f e9fb 8d3f
00000020: 9427 8e3f a576 8f3f 3fcc 8d3f 9373 8f3f
00000030: e110 903f 67d9 853f 188f 8a3f 6a1d 8c3f
00000040: c8ce 8a3f be81 8f3f be8c 893f 4003 913f
00000050: dfde 8c3f 6d99 8f3f e93b 873f 0f2d 8b3f
00000060: 59a4 8c3f 040a 8c3f 951d 8c3f d2ba 8c3f
00000070: b699 8d3f 678d 8c3f 891f 8a3f 47a7 8c3f
00000080: 3fec 8c3f 83fe 8f3f f64e 8a3f 7b92 8e3f
00000090: 2867 913f e0cc 8d3f 6e08 8c3f dfa1 8d3f
000000a0: 5ed7 8f3f ef01 8e3f c1fd 8e3f 9c12 8d3f
000000b0: 06e1 8b3f 967d 8b3f 5f78 913f 44ea 903f
000000c0: fe4b 8e3f 3b8b 923f 6a0d 913f 5733 913f
000000d0: f725 8a3f a9de 8b3f 10a2 943f dba0 913f
000000e0: b7bd 8d3f 7498 8f3f c133 8b3f d61c 8d3f
000000f0: 2e9f 8c3f 9780 873f 63b2 8e3f 0b48 913f
00000100: 4832 8a3f 7194 883f 83fc 8d3f f607 903f
00000110: 67db 933f a952 903f 70b0 893f 1b6b 8e3f
00000120: 55e5 8c3f e0df 913f 0ed8 8c3f 099c 8b3f
00000130: a3f5 8f3f dd55 903f 3586 8e3f 95af 8c3f
00000140: 993e 913f fdb0 8b3f 1a6e 8a3f 4690 8d3f
00000150: c009 943f bf2e 8e3f 5a67 923f 242d 913f
00000160: 157a 903f f570 8a3f 127c 903f c925 8e3f
00000170: 8db6 8d3f 3f6d 8e3f 364f 903f a79e 8e3f
00000180: d23f 8e3f 75d5 8b3f 8567 893f da71 8b3f
00000190: 5d09 8d3f 2066 923f 3119 893f 1668 893f
000001a0: e267 923f 7dc9 913f 32bb 913f fa51 8c3f
000001b0: e709 8d3f 3255 8b3f 81dc 8c3f 01b9 8c3f
000001c0: 741e 903f b3c1 933f e8da 8b3f 9584 953f
000001d0: 2c60 883f 08ea 8c3f aef4 863f e3d0 8d3f
000001e0: fe46 8d3f 0668 8f3f 60da 8d3f 6a6c 8c3f
000001f0: 5175 903f 6689 903f c905 8e3f e65c 913f
1.1043059 1.122288 1.1366284 1.1386397 1.1493016 1.1134404 1.112274 1.1092502
1.1105828 1.1208082 1.1077956 1.1207145 1.1255151 1.0456971 1.0824919 1.0946476
1.0844355 1.1211469 1.0746076 1.1329117 1.1005515 1.1218697 1.0565158 1.0873126
1.0987655 1.0940557 1.0946528 1.0994513 1.1062534 1.0980653 1.0790874 1.0988549
1.1009597 1.1249546 1.0805347 1.1138452 1.1359606 1.1078148 1.0940073 1.1065024
1.12376 1.109434 1.117119 1.1021304 1.0928047 1.0897701 1.1364859 1.1321492
1.1116941 1.144874 1.1332219 1.1343793 1.0792836 1.0927325 1.1611958 1.1377214
1.1073521 1.12184 1.0875169 1.1024425 1.0986078 1.0586118 1.1148189 1.1350111
1.0796595 1.0670301 1.1092685 1.125243 1.1551331 1.1275226 1.075697 1.1126436
1.1007487 1.1396446 1.1003435 1.0906993 1.1246837 1.1276203 1.1134707 1.0991083
1.1347228 1.0913388 1.081485 1.1059654 1.1565475 1.1108016 1.143779 1.1341901
1.1287256 1.0815722 1.1287863 1.1105281 1.1071335 1.1127089 1.1274173 1.1142167
1.1113226 1.0924517 1.0734717 1.089412 1.1018482 1.1437416 1.0710813 1.073489
1.1437953 1.1389614 1.1385252 1.0962517 1.1018647 1.0885375 1.1004792 1.0993959
1.1259294 1.1543487 1.092618 1.1681086 1.0654349 1.1008921 1.054342 1.1079372
1.103729 1.120362 1.1082268 1.0970585 1.1285802 1.1291931 1.1095515 1.1356475

bn1.bias f4 [128]
00000000: 0e86 db3d 31e3 e23d adcc c63d a37b d93d
00000010: b5a9 d93d fbf3 ba3d 8676 d33d 713f b53d
00000020: 6f12 d13d 0e7c d43d ec49 dd3d a123 ca3d
00000030: 186c f13d 0a80 b63d 2a6c bf3d 5723 d13d
00000040: 7816 c53d 5d88 db3d 984e a53d 1502 cc3d
00000050: 063f e73d cdd1 e23d f550 b23d 2efb be3d
00000060: ecac cb3d af0d a53d 2af8 ba3d 34ce d63d
00000070: 6fdf c33d 9944 f73d a60a ba3d 2d98 db3d
00000080: a0fd cc3d f0ed d33d 7083 bd3d 6a82 c43d
00000090: 4dbe d43d c1cd bb3d b5cc c83d bb19 c43d
000000a0: 5946 c73d 8422 c93d 4620 d33d 4b95 bb3d
000000b0: df4f ac3d 281e b53d 9f3b ea3d 21ce b93d
000000c0: a101 be3d b20b e13d 09b6 d53d 9c36 ce3d
000000d0: af75 c93d 2c25 db3d 025d f83d 575f b33d
000000e0: 8be4 d73d e03d a53d 1ca4 c13d 1045 e03d
000000f0: c7c1 c43d 2b69 d83d 4dc8 a63d daaa dd3d
00000100: f8a7 cb3d 9e03 c53d e60e dc3d 6afb e93d
00000110: afc6 d63d e89a d73d 554d ce3d 1069 d23d
00000120: ee3c c93d 695d e23d 8f46 bc3d a3fa b13d
00000130: be9c cc3d 6618 a73d dbd4 eb3d 7524 db3d
00000140: 009c b63d 82ee e53d 2462 bc3d 79ed b83d
00000150: b6b6 dd3d 0740 ca3d 2339 c93d 822e ca3d
00000160: 039d de3d 6b44 c23d ff1f dd3d 8afa b13d
00000170: b5e3 d83d 6faf e03d 9c96 c43d 44d2 e23d
00000180: c155 d23d 7312 a63d d4f7 d03d adef ba3d
00000190: 5768 c83d 950f f43d be36 d43d 7cf8 db3d
000001a0: c972 c13d fba5 c43d ad8a af3d 70e3 cf3d
000001b0: d7a8 cb3d 5609 bf3d c41b d73d 9fde c33d
000001c0: d099 be3d 764a e23d 25f9 bd3d c6bc d13d
000001d0: 906e bb3d da48 c63d 6a34 a33d d78b bf3d
000001e0: baf5 dc3d 2557 b63d 35b7 b33d a410 eb3d
000001f0: 7b80 c83d 5e5b e63d 25cb c43d 5f79 c03d
0.10718928 0.110784896 0.097070076 0.10619285 0.10628072 0.09128567 0.10325341 0.08849991
0.10208594 0.10375224 0.10805115 0.09870077 0.11788195 0.0891114 0.093468025 0.10211819
0.09623426 0.107193686 0.08071631 0.099613346 0.11291318 0.110751726 0.087068476 0.093252525
0.099450916 0.080592506 0.09129365 0.10488549 0.09564101 0.12073631 0.09084062 0.107223846
0.10009313 0.10348117 0.09253585 0.09595187 0.103878595 0.09170104 0.0980467 0.0957522
0.097302146 0.098210365 0.1030889 0.09159335 0.08413672 0.088436425 0.11437153 0.09072519
0.092776544 0.10988559 0.10435111 0.1006901 0.098368995 0.10700449 0.12127115 0.08758419
0.10541638 0.08068442 0.094551295 0.109506726 0.096072726 0.10566934 0.08143673 0.10823603
0.09944147 0.096198305 0.10745029 0.114249066 0.10487115 0.10527593 0.10073344 0.10273945
0.098260745 0.11052973 0.091931455 0.08690383 0.09990834 0.081589505 0.11515208 0.10700313
0.089164734 0.112271324 0.09198406 0.09029669 0.10825865 0.098754935 0.09825351 0.09872152
0.10869791 0.09485706 0.107971184 0.08690365 0.10590307 0.10970961 0.09599039 0.11075261
0.102702625 0.08108988 0.102035195 0.09127746 0.09785526 0.119170345 0.10362004 0.10740754
0.09445722 0.09601971 0.08571372 0.10150802 0.09944313 0.093279526 0.10503343 0.09563946
0.09306681 0.110493585 0.09276036 0.10241084 0.091519475 0.09681864 0.079689816 0.09352844
0.10789056 0.0890334 0.08775178 0.11477783 0.09790131 0.11247896 0.09609059 0.0939815

bn1.running_mean f4 [128]
00000000: d9c0 41bd 4ae9 82be 5737 80be 2e7b efbe
00000010: 73d4 0dbf 9d02 00be e6bf bfbe 4398 83be
00000020: ea0f b2be 9ed9 9cbe 123d f2bd cc15 d8bd
00000030: fdc1 1bbf a39f 28be 613b 7bbd 53e5 90be
00000040: edc4 9ebe f3ea 99be 7ec4 b5bd a62a d3be
00000050: 8df8 dbbd d8a4 f1be 4fdc 72be 7a32 ddbd
00000060: 9a69 50be 6ded 14be 8ec1 09be 5ffa 05bf
00000070: a1f2 bfbd b9e4 babd 9cc7 bbbe 4943 9abd
00000080: 6cc4 b9be 23c8 bdbe e0ba 45be be0e 73be
00000090: fa1b 21be 6ea6 f6be 3df2 39be faa1 65be
000000a0: 31a5 4a3d ccbc aabe 4d0d 6bbe 88b6 04be
000000b0: 4aa9 babe ca99 1dbe 7a0d f1be fe11 d3be
000000c0: 6917 8bbe 18b7 aebe 1920 80be beda 94be
000000d0: df59 e7be 99b7 82be 9325 1dbe 9a2b 8cbd
000000e0: 5f6d dfbe 64e5 babe bf11 d4bc cba6 71bd
000000f0: 9a6a 07bf 65a3 19bf 024c adbd f486 7fbe
00000100: 56e9 b3bd a81e dcbe 8ec1 07bf aca3 acbe
00000110: addb 84be f66d 3dbd e4a8 fcbd db5a 91be
00000120: 87ca febd e468 e6be 7c0e f1be d093 8abe
00000130: 004c 37be 29fa 4fbe 6787 17be df6b 8fbe
00000140: 75f8 4dbe 7f38 4fbe 89f5 b6be 0bbd 92be
00000150: 0154 7fbd 0dc1 893b 74b7 e5be 5f6d 17be
00000160: 729e 5fbe a34f 12be b812 8abe 16fc dabd
00000170: 179e e5be e8b9 03ba 00e9 33be 4815 6fbe
00000180: 1d10 90be fe1a 48be 8728 09bf 66be 43be
00000190: 69e7 8bbe 42f2 7dbe 7bfc ebbe 8b56 e6bd
000001a0: c23f 92be 0a1c ccbe 6568 25be 1b53 37be
000001b0: 29ef 75be b6c9 48bc 54d5 2fbe 3872 e9be
000001c0: 00f9 02bf 6016 ecbd a30d 2abe d898 21be
000001d0: bcb1 a9be 6338 b7be 9766 72be e258 e5be
000001e0: 0cce cbbd 5fab 26be 17ef 1fbe 2c40 65be
000001f0: 6e4b eabd 5018 5bbe b145 8cbe 1b18 a3be
-0.047303054 -0.2556861 -0.2504222 -0.46773666 -0.55402297 -0.12500997 -0.37451094 -0.25702104
-0.34777766 -0.3063478 -0.118280545 -0.105510324 -0.6084288 -0.16467147 -0.061335925 -0.2829996
-0.31009617 -0.30062065 -0.088753685 -0.41243476 -0.10740767 -0.47196078 -0.23716854 -0.10800643
-0.20352784 -0.14543696 -0.13452742 -0.5233516 -0.0937245 -0.09125657 -0.36675727 -0.07532365
-0.3628267 -0.37066755 -0.19309568 -0.23736092 -0.15733328 -0.4817385 -0.18158813 -0.2242507
0.049473945 -0.33347166 -0.22954293 -0.12960255 -0.36457282 -0.15390697 -0.47080594 -0.41224664
-0.27166298 -0.34124064 -0.2502449 -0.29073137 -0.45185754 -0.255307 -0.15346365 -0.06844254
-0.4363813 -0.36503136 -0.025887368 -0.058996957 -0.52897036 -0.60014945 -0.08461763 -0.24953824
-0.0878474 -0.4299214 -0.53029716 -0.33718622 -0.2594885 -0.046247445 -0.12336901 -0.2838963
-0.12440973 -0.450019 -0.47081363 -0.27065897 -0.17900085 -0.20310272 -0.14797746 -0.28011987
-0.2011431 -0.20236395 -0.35734203 -0.28659853 -0.06233597 0.0042039216 -0.44866526 -0.14787816
-0.21837786 -0.14288191 -0.26967406 -0.10692613 -0.44847175 -0.00050249556 -0.17569351 -0.23347962
-0.28137293 -0.19541547 -0.53577465 -0.191156 -0.2732499 -0.24799445 -0.46091065 -0.112469755
-0.28564268 -0.39865142 -0.16153105 -0.17902796 -0.24017014 -0.012255123 -0.17171222 -0.45594954
-0.51161194 -0.11527705 -0.16606764 -0.15780962 -0.33143413 -0.35785207 -0.23671947 -0.44794375
-0.0995141 -0.1627631 -0.1561855 -0.22387761 -0.11440168 -0.21395993 -0.2739692 -0.3185433

bn1.running_var f4 [128]
00000000: 9614 9c3e 768a cd3e 9e0e 8e3e 42cf 953e
00000010: 0526 9f3e 0fb7 bb3e 5823 b93e 562f e73e
00000020: 51b4 cf3e ae85 fb3e 1d7a 943e 5e47 ea3e
00000030: 5a3f de3e 21a1 d23e e36f eb3e 6437 af3e
00000040: d81d 8c3e e621 9a3e d896 cb3e c9a8 b93e
00000050: aac6 b93e 137c a83e 68ed b93e 5b8b b03e
00000060: ef31 803e e1dd fd3e 8c53 ae3e 863f 013f
00000070: 5e04 b83e 58c9 ca3e ec2d fb3e 23a6 ec3e
00000080: dab7 933e 0ad4 863e 1baf f03e 706a a63e
00000090: d3de 9e3e 94ef c63e 016e 003f b03b d93e
000000a0: bebc cf3e dddb d53e 8fdc a03e 694c c93e
000000b0: 8702 c43e b567 a73e 22fa e73e 4473 e13e
000000c0: 01f4 b83e bdd7 f03e e8c6 cd3e f7bc 933e
000000d0: 25fc bd3e b7d9 193f 9140 ae3e 3dc1 c83e
000000e0: 83e6 8a3e 22af a73e e52b ab3e 75da c73e
000000f0: 451a f43e 0ef0 a33e 62d7 cb3e 681a df3e
00000100: 173d c93e bd89 9f3e bd67 df3e 9c1f 033f
00000110: 8e1a a93e e124 ad3e 8026 df3e 233f d73e
00000120: f91e ac3e 8fa9 ca3e c135 873e 8ac3 a73e
00000130: 9430 993e b3c9 8f3e bec9 cd3e 2503 e43e
00000140: b95c ea3e dc5d a03e afdd bc3e 5af4 853e
00000150: 536a b83e 02b2 9f3e 9a3c c83e 281e 733e
00000160: 368f 943e 8d92 963e dbb1 9f3e 31da d13e
00000170: cc26 a73e 9050 9f3e 1b0c 833e 3b5b a53e
00000180: d6d9 a93e ad11 d03e 1a92 cc3e 8a54 983e
00000190: cfc7 ba3e 5387 bd3e aa3d d43e ff28 f73e
000001a0: 8262 883e e65d 933e 4c72 073f 6c56 dc3e
000001b0: ad12 e53e ae55 c13e 1b64 a03e 6295 d73e
000001c0: c400 ae3e 2ab0 c43e a0bb af3e 0e87 ec3e
000001d0: e9a7 b53e 37dc 9e3e 24d5 033f 0e3c 823e
000001e0: 6975 d63e 4e46 ec3e 33d9 db3e ce79 d13e
000001f0: 808a 1a3f ee65 af3e 1960 7c3e c0db 953e
0.30484456 0.401447 0.27745527 0.29259688 0.31083694 0.366631 0.36159778 0.45153302
0.40567258 0.49125427 0.28999415 0.45757574 0.43407708 0.41138557 0.459838 0.34221947
0.2736652 0.30103987 0.39763522 0.36261585 0.3628438 0.3290716 0.3631394 0.3448132
0.25038096 0.49583343 0.34048116 0.50487554 0.35940832 0.39606738 0.49058473 0.46220502
0.28851205 0.26333648 0.47008595 0.3250308 0.31029376 0.3885466 0.5016785 0.4242835
0.40573686 0.41769305 0.31418273 0.3931611 0.38283178 0.3269631 0.45308024 0.44033253
0.3612366 0.47039595 0.40190816 0.28855106 0.37106434 0.6009783 0.34033635 0.3920993
0.2712899 0.32750803 0.33431926 0.39033857 0.47676292 0.32019085 0.39812762 0.43574834
0.3930442 0.31159773 0.43633834 0.5122011 0.33028072 0.338172 0.4358406 0.42040357
0.3361738 0.39582488 0.26408198 0.32766372 0.29919875 0.28083572 0.4019298 0.4453365
0.45773867 0.3132161 0.3688788 0.26162988 0.3601862 0.31190497 0.39108735 0.23741972
0.2901551 0.29408684 0.3119038 0.4098678 0.32646787 0.31116152 0.25595173 0.32296166
0.33174008 0.40638486 0.39955217 0.29751998 0.36480567 0.37017307 0.41453296 0.48273465
0.26637655 0.28782576 0.5290878 0.43034685 0.4474081 0.3776068 0.31326374 0.42106158
0.3398496 0.38415653 0.34322834 0.4619679 0.35479668 0.31027386 0.514971 0.25436443
0.41886452 0.46147388 0.42939147 0.40913242 0.60367584 0.34257454 0.24646033 0.29269218

conv_disc.weight f4 [10, 128, 1, 1]
00000000: 6c06 01be 67ac 8dbd 8e69 92bd ab8d 24bd
00000010: 53b2 c2bd 73b7 7f3d 772c 89bd 3bd9 8c3d
00000020: 2e68 ffbd b751 b4bc aafc b2bd f67e 9dbd
00000030: cdd4 4cbd 069b 9ebd e183 a3bd aa95 8cbd
00000040: 1219 a7bd 8051 d13d 2cb6 84bd 2024 1fbd
00000050: 8650 89bd 7973 9abd 9c5e 6abd 122d d0bd
00000060: e3ea b3bd 1ebb 7b3d 4e99 013e dc66 7fbd
00000070: 1bd0 8dbd 9904 9cbd 26fe 4a3d a0ac dc3d
00000080: dde7 cb3d ba56 033e 5aa8 1ebd 95fa e83d
00000090: bc17 cc3d 8755 dfbd 3ac6 a0bd 8758 90bd
000000a0: e6c5 b7bd 4445 e03d ddec 82bd 007a 2ebd
000000b0: acf5 a83d b031 72bd 5a32 bdbd 26b0 c53d
000000c0: 5a25 793d 5472 a93d 3f15 90bd 0516 df3d
000000d0: 7774 7abd 0e41 a33d 7dbc 5dbd 82e2 6cbd
000000e0: 50f9 8ebd 149e 8bbc 064e c3bd bc2e cebd
000000f0: 506c dabc 2e11 01bd 1b8b 81bd acb6 72bd
00000100: f76b ed3d d77e f13d 7f50 03be f8dd c5bd
00000110: cbb3 85bd ce77 f03d c5f3 d03d cbfe 82bd
00000120: a2fe aabd 9e74 bbbd 193a 7a3d bb81 82bd
00000130: c6d2 94bd 1fa7 b0bd 6900 7bbd 0f2e b73d
00000140: 4811 85bd d9aa a5bd 6fb6 873d 351e 95bd
00000150: 803f 88bd c71c 39bd bf30 64bd e783 c8bd
00000160: f7e7 dd3d cf2c d13d 5f43 7ebd 1be8 89bd
00000170: 1367 bbbd b60b a1bd 468f 39bd 1ea6 c8bd
00000180: 27ef 9bbd f9e6 3cbd b4bc bf3d e30c 88bd
00000190: 32a4 df3d 4cb9 0f3d 64ef ccbd 7548 9dbd
000001a0: 14df 86bd e407 e13d 436e 98bd ad4b 94bd
000001b0: bc55 8ebd 0aa2 88bd 7486 ad3d b474 c0bd
000001c0: 4c75 af3d 54a9 b53d 1e80 95bd 6450 683d
000001d0: 46d2 b9bd 07bb 44bd b638 d6bd c14b a7bd
000001e0: e098 81bd 8088 92bd 5d8b 60bd c84f 58bd
000001f0: c56a 9fbd 343e ab3d f053 a3bd a09c dd3d
00000200: f4d5 c23d ee62 b53d cb49 a6bd 5772 d13d
00000210: dcef 933d 27ca 733c 3350 94bd b931 01be
00000220: 1cc5 a1bd 2fe9 aabd fbd0 bb3d 8155 d1bd
00000230: 9da7 c3bd 7c79 ee3c 1a18 d0bd 8ff0 b9bd
00000240: a8cc 38bd f027 d2bc d550 283c 147f af3d
00000250: 4244 ca3d 030f a2bd 081d db3b f15f 2ebc
00000260: 4b05 d3bd 2529 9ebd 9d4a 84bd 10d2 d83d
00000270: ad86 ca3d 15c5 ce3d 96dc 5fbd 932c babd
00000280: 8400 21bd ff4e ee3d 329d 863d 4014 8abd
00000290: fa94 87bd 19b2 86bd 8707 9abd b4f3 89bd
000002a0: 7ab7 b5bd 1364 a1bd a581 7fbd ce88 cb3d
000002b0: 83de a3bd 2b10 cabd 78c4 aa3d b37c 20bd
000002c0: e17c 1fbd f0e2 e9bd fb2c d63d a860 ea3d
000002d0: 58af 46bc 3fc8 97bd 7809 f33d a919 96bd
000002e0: 8d54 d6bd c13b 98bd 16ca 7bbd 3c60 bbbd
000002f0: a0ff 96bd 4bbc 1b3c b010 f0bd a91f 5dbd
00000300: 71fc 9bbd 5f72 b6bd 1f3b d1bd 5198 68bd
00000310: 02cf dbbd 5b5c d93d 5aaf acbd c393 12be
00000320: ff50 b63d d431 5cbd d5ef 87bd 1487 e23d
00000330: 155b c2bd 58a6 ae3d c122 c63d b69a a0bd
00000340: 543c c0bc fe05 dfbd cbe2 bcbd 24dc a9bd
00000350: ae0b d53d 19fc 8bbd 577b 9fbd e31d 10be
00000360: ae52 f03d e3c0 98bd 1879 98bd 7bf1 a5bd
00000370: e16c 6fbd 7a93 b73d 7c87 cabc 2b0b 8e3d
00000380: bf65 a5bd 2e65 c23d d5db 83bd 6f46 d33d
00000390: fedd 86bd 8c1f 4bbd d02b a4bd ec1e b5bd
000003a0: f56a 9bbd c7dc 68bd 6609 e1bd 1b16 c33d
000003b0: 37cf 6dbd a0e1 6b3d a481 de3d 79cd d5bd
000003c0: 61ee a3bd 1a5e cebd f7d5 cd3d 2b19 86bd
000003d0: 2eea 36bd 4a27 8ebd bac8 c33c eff6 d13d
000003e0: a0c2 aebd 902d 61bd a487 66bd d4a2 b4bd
000003f0: 9b01 b2bd 2dd1 98bd bef7 87bd 15ff c3bc
-0.12600106 -0.06917649 -0.07149039 -0.040174168 -0.09506669 0.06243081 -0.06697934 0.06877371
-0.124710426 -0.02201162 -0.08739598 -0.076902315 -0.05000763 -0.07744412 -0.07984138 -0.06864484
-0.08159079 0.10220623 -0.06480059 -0.03885281 -0.06704812 -0.07541556 -0.057219133 -0.101648465
-0.087850355 0.061457746 0.12656137 -0.062353954 -0.069244586 -0.076180644 0.04955878 0.10775113
0.09956334 0.12826052 -0.03873477 0.1137592 0.099654645 -0.10904985 -0.07850309 -0.07048135
-0.08973293 0.10950711 -0.06392834 -0.042596817 0.08249983 -0.059129417 -0.092381194 0.09652738
0.060826637 0.082737595 -0.07035302 0.10892872 -0.061146226 0.079713926 -0.054134835 -0.057833202
-0.06981146 -0.017043151 -0.09536366 -0.100675076 -0.026662976 -0.031510524 -0.063253604 -0.05925624
0.11592858 0.11791771 -0.12823676 -0.09661478 -0.065284334 0.11741601 0.10202745 -0.06396254
-0.083493486 -0.09153102 0.061090562 -0.063724004 -0.07266764 -0.08625626 -0.061279688 0.08944332
-0.06497437 -0.08089227 0.06626593 -0.07281152 -0.06652737 -0.04519346 -0.05571055 -0.097907834
0.108352594 0.10213625 -0.06207597 -0.06733724 -0.09150519 -0.07863562 -0.04530265 -0.09797309
-0.07613974 -0.04611871 0.09362164 -0.06643083 0.1091999 0.035088822 -0.10006598 -0.07679836
-0.065855175 0.10987833 -0.07442906 -0.072409965 -0.06949946 -0.066715315 0.084729105 -0.09397259
0.085672945 0.088701874 -0.07299827 0.05671729 -0.090733096 -0.048029926 -0.104600355 -0.08168746
-0.06327987 -0.071549416 -0.054820407 -0.05281046 -0.077840365 0.08361474 -0.07974994 0.108208895
0.095134646 0.0885676 -0.08119544 0.10226887 0.07223484 0.01487974 -0.07241859 -0.12616624
-0.07898924 -0.083452575 0.09170719 -0.10221387 -0.09553454 0.029110663 -0.10160847 -0.09079086
-0.04511705 -0.02565381 0.010273178 0.0856916 0.098763004 -0.079130195 0.0066868104 -0.010642991
-0.10303744 -0.077226914 -0.06459544 0.10586941 0.098889686 0.10096184 -0.054653727 -0.09090533
-0.039307132 0.11636161 0.065729514 -0.06742144 -0.06620212 -0.06576938 -0.07520967 -0.06735936
-0.08872886 -0.07880416 -0.062379498 0.09938203 -0.08001425 -0.09866365 0.08338255 -0.039181422
-0.038937453 -0.11420238 0.10457798 0.11444217 -0.012126766 -0.07411241 0.118670404 -0.07329113
-0.104653455 -0.07433272 -0.06147202 -0.091492146 -0.07372975 0.009505342 -0.11721933 -0.05398527
-0.07616509 -0.08908533 -0.102163546 -0.056785885 -0.10732843 0.106133185 -0.08431883 -0.14314179
0.089021675 -0.053758457 -0.06637541 0.1106092 -0.09490029 0.08527821 0.096745975 -0.07842009
-0.023466267 -0.10889815 -0.09222945 -0.082939416 0.10402618 -0.06835193 -0.07787197 -0.14073901
0.1173452 -0.07458665 -0.07444972 -0.08102699 -0.058453444 0.08963676 -0.024722807 0.06935724
-0.08076047 0.09491955 -0.06438414 0.103161685 -0.065853104 -0.049590632 -0.08016169 -0.088437885
-0.0758876 -0.056851175 -0.10988121 0.09525701 -0.058058944 0.05758822 0.10864571 -0.104395814
-0.080044515 -0.10076542 0.10050576 -0.06547769 -0.044656925 -0.069410875 0.023899425 0.10252177
-0.085332155 -0.054975092 -0.0562817 -0.088201195 -0.086917125 -0.07461772 -0.0663905 -0.023925344

conv_disc.bias f4 [10]
00000000: 9eee 94bc 493b 65bd fb61 843d 82ee 57bd
00000010: a078 82bd cced 863d 59ea 88bd a7a6 293d
00000020: 7749 67bd 10d9 abbd
-0.018180188 -0.05596474 0.06464001 -0.052717693 -0.06370664 0.06588325 -0.06685323 0.041418698
-0.056466546 -0.08391011

conv_mu.weight f4 [2, 128, 1, 1]
00000000: 844f 65bc faff 393c e226 e53c 5454 c1bb
00000010: e297 173d 135c 58bd 4d35 dfbc 6f24 ebbc
00000020: 0668 b83b 3aaf f53a acbf 433c ab93 01bd
00000030: 8f4a 313c e871 9c3d ee31 ecbc 16f4 f23c
00000040: 03a0 00bc 0818 e8bc 9b02 aa3d 6aa2 75bc
00000050: b380 c8bc f9a8 003d 485d a73d 8b6f 80bb
00000060: f6d6 67bc 9b62 8b3d 88b7 89bd e863 4f3d
00000070: 7f16 c43d f858 80bc d622 c0bb e49c 4bbc
00000080: e2d7 593d 56f8 263c 972a 33bc 16a9 da3c
00000090: 58e1 2a3d 57c6 743d 970b df3c 9dda 393b
000000a0: 3905 69bd 3ddc 9abc 0ff3 d2bc c085 d6bc
000000b0: c625 21bd 07eb 72bd 39e8 9fbc 919b 4ebd
000000c0: 785d 2cbd d53d 653d 1e59 0fbd 91ac 1e3d
000000d0: 6aa2 31bd 7a77 dfbc ca2f c3bb b78b 2dbd
000000e0: 04fe 2d3c b7c0 eb3c df58 28bd a2b0 823c
000000f0: 91a6 90bd c6b5 8c3c 5c9f 86bd 6143 ff3b
00000100: 7626 413d 7921 03bd 28f8 d33c 9252 a7ba
00000110: a453 f63c aacf 343c 7359 203d cf6f 263d
00000120: 0bff 32bd 008d 89bc 778f d93d 98a6 213d
00000130: 577d 653c 9311 00bd a5d1 abbc 39cd 233b
00000140: 163b 8e3d e77f 893b 778a 723d e3a5 4cbd
00000150: d214 f8bb efc3 10bd 7bbf 2b3d 0c01 dd3b
00000160: 66bf 1f3d 867f 6dbd a845 19bc a270 2fbd
00000170: 71f0 a63c a697 3f3d e9da 8a3d 2b78 fc3c
00000180: 404a 343a 7fb6 2dbd 7419 df3b 3b69 a6bd
00000190: eeb1 ca3c cc60 3039 e737 363a 261c 16bd
000001a0: 6cca 37bd d48f 9b3b f7ae 05bd d7bc 393d
000001b0: 5797 863c aab9 b03a 0318 6cbc f6d7 e3bc
000001c0: 0f1d e5bb be2f b5bc 3bc3 043b 40de bebc
000001d0: 8988 8dbd 8a22 31ba 9e7f b0bd 74b4 1c3d
000001e0: 06a1 013d d167 81bb 3961 693d f8a1 563d
000001f0: 90ee aabc fcd2 83bc 6bfc fabc 074d 8b3d
00000200: 55fb a0bc 2f96 a0bc 7859 f8bc 4dd0 a53c
00000210: 02e7 8bbc 61e3 e13d e945 2bbd 1561 0e3b
00000220: 0f74 ac3b 8389 6bbc 915c 553c 820b a2bc
00000230: 4083 1b3a e2c7 6cbc 7be9 b2bc 9681 b83b
00000240: ba56 573d b8d4 feba 93fc 01bd 245a 46bd
00000250: 5a57 d5bb d77d 5cbc a539 8fbd 3da2 04bd
00000260: 35ab 693d 5d45 dfbd be78 35bc 23b4 51bc
00000270: 322e 003d 392f e63c 9609 483d ebb8 5abc
00000280: 3159 efba 965f 0bbd ba79 cc3d a581 b6bc
00000290: a8c3 093d 9e0b 863c c9e3 68bc 2647 403d
000002a0: fb0b 2dbc be6e 03bd 561b 90bc f3c7 b43d
000002b0: ac0d 89bd c27d 05bd 9d27 353b 2a10 113d
000002c0: 50f4 2dbd dbbe fa3b 2a45 87bc 4fd6 dc3c
000002d0: 1db1 16bd 2cb6 67bb f9b3 003c 3557 1dbd
000002e0: 6a54 d639 d125 883d d69d 293d 2553 c13c
000002f0: d259 1dbc 4ad1 b73c 9fab 97bd 7ac3 1dbb
00000300: 7d09 42bc cb00 6b3c 9a20 2dbb 772e 09bd
00000310: ad4e 413c c78d bbbb e9ab 87ba 7447 c4b9
00000320: 0fee 07bd 0e66 39bc 60f1 b03c 503a 8c3d
00000330: 7874 2f3d fd19 14bd 96a6 ee3a e8e9 f53c
00000340: ec65 ffbc 3cd6 d8ba bd8e 8c3d 0772 833d
00000350: 5329 d9bc f50c db3c c6fb c6bc 537a 593d
00000360: 58d4 95bb 6ed7 e53a 47e6 f7bc 8d19 2d3d
00000370: 6540 18bb 9ccf 4bbc 5e1e a13c 40e8 313d
00000380: c8bb 9abc 3212 3dbd f4e6 e93b 1b63 853d
00000390: 43bb 453d 7d1f a93c a078 41bd 1fb1 47bb
000003a0: b69f bb3c d84e 333d 25eb 583d bab6 e03c
000003b0: ed2d 343d 54d7 aabd 6bd3 dfbc 4b82 e0bc
000003c0: 67ba 97bd 72e7 573c 72fd 763d bb0b bd3c
000003d0: f6d7 783c 4934 fdbc 5c09 d9bd 001b 2bbd
000003e0: dccf 4a3c 89ff 883d 7c78 6abd 97a9 23bc
000003f0: 19f8 153d 8389 703c 7f2d 913c a354 ccbc
-0.013996009 0.0113525335 0.027972642 -0.0058999453 0.03701008 -0.052822184 -0.027247095 -0.028703896
0.005627635 0.0018744238 0.011947554 -0.031634968 0.010820999 0.076389134 -0.028832402 0.029657405
-0.00785065 -0.028331771 0.08301278 -0.014992336 -0.024475431 0.031411145 0.08172089 -0.003919547
-0.014150372 0.06805917 -0.06724459 0.050632387 0.09574603 -0.015667424 -0.005863528 -0.012427542
0.053184398 0.010191044 -0.010935447 0.026691955 0.04171881 0.059759464 0.027227206 0.0028359063
-0.056889746 -0.018903846 -0.025750665 -0.026186824 -0.039342664 -0.05930617 -0.019519912 -0.05044133
-0.042081326 0.05596717 -0.0349971 0.03873879 -0.04336778 -0.02727865 -0.0059566246 -0.04236957
0.010619644 0.028778417 -0.04110038 0.015953366 -0.0706302 0.01717652 -0.06573364 0.0077900146
0.04715582 -0.032014344 0.025875166 -0.0012765697 0.03006918 0.011035839 0.039147805 0.040633973
-0.04370026 -0.016790867 0.10623067 0.039465517 0.014006934 -0.03126676 -0.02097399 0.0024994148
0.069448635 0.0041961554 0.05921408 -0.04996289 -0.0075708413 -0.035343107 0.041930657 0.0067445096
0.03900089 -0.057982944 -0.009354986 -0.042832024 0.020378323 0.046775483 0.06780035 0.03081902
0.0006877519 -0.04241037 0.006808454 -0.0812554 0.024743047 0.00016820728 0.0006951079 -0.03664794
-0.04487078 0.0047473703 -0.032637563 0.045346107 0.016429586 0.0013483067 -0.014410022 -0.02781294
-0.0069919894 -0.022117492 0.0020257968 -0.023299336 -0.06910808 -0.0006757161 -0.08618091 0.03825803
0.031647705 -0.0039491435 0.056977484 0.05240056 -0.020865709 -0.016091816 -0.03063794 0.06801801
-0.019651094 -0.019602863 -0.0303161 0.020240927 -0.017077927 0.11029697 -0.04181472 0.0021725346
0.0052628587 -0.014376047 0.013022558 -0.019780878 0.00059323385 -0.014451953 -0.021839848 0.005630682
0.052572943 -0.0019442057 -0.031735014 -0.04842581 -0.0065106573 -0.013457737 -0.06993417 -0.032381285
0.05704804 -0.10901902 -0.01107615 -0.012799296 0.031294055 0.02809869 0.048837267 -0.013349752
-0.0018260834 -0.034026705 0.09984155 -0.022278616 0.033633858 0.016362961 -0.014214464 0.046942852
-0.010561938 -0.032088034 -0.01759116 0.088272 -0.06692061 -0.032590635 0.002764202 0.035415806
-0.042469323 0.0076521463 -0.016512472 0.026957659 -0.036790002 -0.0035356386 0.007855409 -0.038413245
0.00040880154 0.06647838 0.04141029 0.023599217 -0.009603934 0.022438664 -0.07405781 -0.0024072812
-0.0118430825 0.014343451 -0.0026417137 -0.033491578 0.011798543 -0.0057236883 -0.0010350916 -0.0003743727
-0.033186015 -0.011315836 0.021599472 0.0684706 0.042835683 -0.036157597 0.0018207605 0.030018762
-0.03117653 -0.0016543339 0.06863163 0.06418233 -0.026508963 0.026739577 -0.024289977 0.053095173
-0.0045724325 0.0017535517 -0.030261172 0.042260695 -0.0023231742 -0.012439635 0.0196678 0.04343438
-0.01888837 -0.04615993 0.0071381275 0.065130435 0.04827429 0.020644898 -0.047234178 -0.0030470563
0.022903305 0.043776363 0.052958626 0.02743088 0.04398911 -0.08341852 -0.027322492 -0.027405879
-0.074086 0.013177739 0.060300298 0.023076883 0.015188208 -0.03090872 -0.10597488 -0.041773796
0.012378659 0.066893645 -0.05724381 -0.009989164 0.036613557 0.014681223 0.01772189 -0.024942702

conv_mu.bias f4 [2]
00000000: 3476 98bd f0fc 01bd
-0.074444205 -0.03173536

conv_var.weight f4 [2, 128, 1, 1]
00000000: 821a c2bd 9959 10bd a821 9bbd 3253 8fbd
00000010: 8c9d 34bd e740 7cbd 005a 10bd 6e55 52bd
00000020: 86c1 f7bc 899f 66bd 5ae4 4bbd 1fc7 b5bd
00000030: 36a7 bfbc 9cb7 21bd fbaa 60bc 0688 bdbd
00000040: 28eb 4dbd fae0 95bd 6d6a f8bc afd6 8ebd
00000050: d2f5 0dbd c6dc 4bbd ee05 9ebc 3adb 16bd
00000060: 2940 84bd 9082 d4bc 28b9 14bd 0439 01bd
00000070: 04d5 e6bc 010b 21bd fcf8 19bd f184 7ebd
00000080: e21c f6bc 0bd8 b0bc 088e 75bd 17e3 d1bc
00000090: c369 cbbc 908c 5dbd 5c04 38bd 52a9 2dbd
000000a0: 776f 7bbc ba67 6ebd 2b60 94bc 16a8 0ebd
000000b0: 598d 50bd d6e8 75bd 0928 3fbd 2493 6dbd
000000c0: 44a8 14bd 4722 d2bc 6e8a 58bd d6af 2dbc
000000d0: f682 45bd 2adb 09bd ffd5 26bd 2f6a 42bd
000000e0: 226c 8cbd 4ab1 2fbd 8496 29bc 94db 63bd
000000f0: d9ec 17bd 6902 53bd 4618 94bd 2085 91bd
00000100: 003b 7ebd d835 a5bd dcff 38bd 10c0 babd
00000110: 4c9e 3c3c d8a3 c3bc 2e83 ccbc bacb 63bd
00000120: 85ac ffbb 5005 dfbc e0ff a5bd 4157 a2bd
00000130: 632e 49bc 6879 85bd e4ce 00bd c82a 89bd
00000140: 045f d3ba 1e2c 0b3c 5e08 4dbd 3161 afbc
00000150: 4c6f 82bd e1c6 90bd 1eff 9dbd f0a0 4fbd
00000160: 60ab 38bd 7038 71bd 5225 61bd c98b 75bc
00000170: f44c c8bb 2e67 d4bc f3c2 5dbd 834e 78bd
00000180: 70ae 82bd 6847 1bbd a228 94bd 1b08 42bd
00000190: d71b 82bd e03a c7bd 9aac 41bd 0837 4bbd
000001a0: b43d 33bd 278b 0fbd 9e3b c7bc 06d3 18bd
000001b0: a35d 52bd 5f5a 24bd bb5d 0dbd d859 49bd
000001c0: 12f2 7fbd 710a abbc 3bc3 1bbd a2eb 4dbd
000001d0: 93e2 c0bd 3c68 9abd 527c 12bd ad57 84bd
000001e0: 69a0 58bd a95f a3bc dce9 adbd 6904 3dbd
000001f0: 2b17 1cbd 7018 81bd 10e2 54bd 7ea5 41bd
00000200: ea62 21bd 3a44 1739 5136 86bd 0ba4 86bd
00000210: a1e7 81bd 4381 9abd d9e9 7dbd 9618 34bd
00000220: f3c6 75bd c7ce 59bd 95ab 62bd aa50 f1bc
00000230: 591e aabd 6c83 78bc 689d 07bd 0e6f 9abd
00000240: d8cd 73bd ccaf 4cbd 20da 0dbd 6fe8 50bd
00000250: 9764 1cbd 81cf 2dbd 00f7 9dbd 98c2 b7bc
00000260: 48d4 a7bc 299d 25bd da80 acbd 7c0e 1abd
00000270: 8fb5 96bd 9e22 9cbd dac1 1dbd 294e 9bbd
00000280: e5ce 05bd e896 6ebd d35a 13bd c3b5 1abd
00000290: 02b3 5ebd c869 debc 536d babc 1f10 07bd
000002a0: 24e7 21bd 6ee2 7dbd 0c99 f0bc 2ceb 55bd
000002b0: a01e 5fbd cef7 19bd 6344 59bd 2e17 1fbd
000002c0: b0f3 3dbd 83a7 80bd 9eab d9bc bc21 32bd
000002d0: 2a97 dcbd 519a 8bbd 4322 90bd f2c0 9fbc
000002e0: 208d a2bd e254 48bd b998 0abd 195a 1dbd
000002f0: 1ca9 7ebd 6b7a 1fbd 8baf 90bd 3b27 77bd
00000300: a800 d4bc bae8 86bd aebd d7bb e530 01bd
00000310: b808 06bd fde3 e1bc bb08 10bd f0f6 b2bd
00000320: 9b69 9cbd 9897 dbbc 6ffe 77bd 3cdc 1dbd
00000330: fc5b 8abc b062 42bd 6da7 17bd e153 a7bc
00000340: 5854 57bc e195 24bd 373e 8cbc ffa4 0cbd
00000350: 97f2 94bd 6d4d 83bd 5554 4bbd e9d9 50bd
00000360: 66b7 7abd 820b 16bd 4afd 79bc f3df 5bbd
00000370: 6d6d edbd 187e 2fbd b602 86bd c730 03bd
00000380: bb22 a2bd c5c9 01bc 1486 6fbd cc53 0bbd
00000390: d2eb 69bd 22e9 57bd 1069 5cbd 6a82 82bd
000003a0: 094a 0ebd cdae b3bc a5c5 b1bc 7b7b 08bd
000003b0: d541 81bd 8b3a 5dbc 8e79 44bc b471 a1bd
000003c0: 359c 9dbd 60c1 40bd 2d78 50bd 359b 5abd
000003d0: e95f 43bd 0ece 57bb b385 72bd bd8a fdbd
000003e0: 072d 5cbd 8fc6 5fbd 1717 98bd 4334 47bd
000003f0: 93b9 a0bc a5ce f2bc 30ed 18bd cc4a 93bd
-0.09477712 -0.035241697 -0.07574779 -0.0699829 -0.04409556 -0.061585333 -0.03524208 -0.051351003
-0.030243646 -0.05630449 -0.04977832 -0.0887587 -0.023395162 -0.039481744 -0.01371264 -0.0925446
-0.05027309 -0.073183015 -0.030324185 -0.069745414 -0.03465826 -0.049771093 -0.019289937 -0.036830164
-0.0645755 -0.025941163 -0.03630939 -0.031548515 -0.028177746 -0.039317135 -0.037590966 -0.0621385
-0.03004307 -0.021587392 -0.059949905 -0.02562098 -0.024830705 -0.05408913 -0.044926032 -0.042397805
-0.0153463995 -0.05820439 -0.018112263 -0.034828268 -0.05091605 -0.060036503 -0.04666904 -0.058001652
-0.036293283 -0.02565111 -0.05286639 -0.010601005 -0.048220597 -0.033656277 -0.040731426 -0.047464546
-0.06856562 -0.042893685 -0.010350827 -0.055629328 -0.03709111 -0.05151597 -0.07231192 -0.0710547
-0.062067986 -0.080669105 -0.04516588 -0.09118664 0.01151235 -0.023881838 -0.024964895 -0.05561421
-0.0078025484 -0.027224213 -0.08105445 -0.079267986 -0.012279126 -0.06517297 -0.031447306 -0.06697613
-0.0016126339 0.008494405 -0.050056808 -0.02140865 -0.063688844 -0.07069183 -0.07714675 -0.05069059
-0.04508531 -0.058891714 -0.054967232 -0.014986941 -0.006112689 -0.025928106 -0.054140996 -0.06062175
-0.063809276 -0.037909895 -0.072343126 -0.04737101 -0.06352966 -0.097280264 -0.047283746 -0.04961303
-0.043760017 -0.035044815 -0.02432042 -0.037310623 -0.05135883 -0.040125247 -0.034513216 -0.049157947
-0.062486716 -0.020879002 -0.038027983 -0.050273545 -0.094182156 -0.075394124 -0.035763092 -0.06462035
-0.052887354 -0.019943075 -0.08491871 -0.046146784 -0.038108032 -0.06303489 -0.051973403 -0.047276966
-0.039400972 0.00014425899 -0.06553329 -0.065742575 -0.06343008 -0.07544186 -0.061990593 -0.04396876
-0.060004186 -0.053175714 -0.055339415 -0.029457409 -0.083065696 -0.015168052 -0.0331091 -0.07540713
-0.05952248 -0.04997234 -0.03463185 -0.051002916 -0.038181867 -0.04243422 -0.07713127 -0.022431657
-0.020486966 -0.040433083 -0.08423014 -0.03761147 -0.07358848 -0.0762379 -0.03851495 -0.07583267
-0.032668013 -0.058249384 -0.03597529 -0.037770998 -0.054369934 -0.02715005 -0.022757208 -0.03297436
-0.039527074 -0.06198352 -0.029369853 -0.05222623 -0.054472566 -0.03758984 -0.053043734 -0.038840465
-0.046374977 -0.0628195 -0.026571091 -0.043489203 -0.1077102 -0.06816543 -0.07037785 -0.019501183
-0.07937074 -0.048909076 -0.033837054 -0.038416002 -0.062172994 -0.038935106 -0.07064732 -0.060340147
-0.02587922 -0.06587358 -0.006583891 -0.03154077 -0.03272316 -0.027574534 -0.035164576 -0.08738506
-0.0763733 -0.026805684 -0.06054538 -0.03854011 -0.016889565 -0.047457397 -0.037024904 -0.020425739
-0.013142668 -0.040182 -0.01711951 -0.03433704 -0.07272833 -0.06411252 -0.049640972 -0.050989065
-0.06121006 -0.03663207 -0.015258143 -0.05368037 -0.11593137 -0.04284486 -0.06543486 -0.03202894
-0.079167806 -0.007921641 -0.058477476 -0.03401546 -0.05710966 -0.052712567 -0.053811133 -0.06372531
-0.034738574 -0.021933937 -0.02170069 -0.033320885 -0.063113846 -0.013502727 -0.0119918715 -0.07883015
-0.0769581 -0.047059417 -0.05089586 -0.053370673 -0.04769889 -0.0032929215 -0.059209537 -0.12379978
-0.05375388 -0.05463272 -0.07426279 -0.048633825 -0.019619739 -0.029639551 -0.037335575 -0.07192001

conv_var.bias f4 [2]
00000000: d4e8 a1bd b2af 9f3c
-0.079057366 0.019492958
